…
==================================================================================================
input_1 (InputLayer)            [(None, 8000)]       0
__________________________________________________________________________________________________
tf_op_layer_Pad (TensorFlowOpLa [(None, 8064)]       0           input_1[0][0]
__________________________________________________________________________________________________
tf_op_layer_split (TensorFlowOp [(None, 128), (None, 0           tf_op_layer_Pad[0][0]
__________________________________________________________________________________________________
dft (DFT)                       (None, 128)          32768       tf_op_layer_split[0][0]
__________________________________________________________________________________________________
dft_1 (DFT)                     (None, 128)          32768       tf_op_layer_split[0][1]
__________________________________________________________________________________________________
dft_2 (DFT)                     (None, 128)          32768       tf_op_layer_split[0][2]
__________________________________________________________________________________________________
dft_3 (DFT)                     (None, 128)          32768       tf_op_layer_split[0][3]
__________________________________________________________________________________________________
dft_4 (DFT)                     (None, 128)          32768       tf_op_layer_split[0][4]
__________________________________________________________________________________________________
dft_5 (DFT)                     (None, 128)          32768       tf_op_layer_split[0][5]
__________________________________________________________________________________________________
dft_6 (DFT)                     (None, 128)          32768       tf_op_layer_split[0][6]
__________________________________________________________________________________________________
dft_7 (DFT)                     (None, 128)          32768       tf_op_layer_split[0][7]
__________________________________________________________________________________________________
dft_8 (DFT)                     (None, 128)          32768       tf_op_layer_split[0][8]
__________________________________________________________________________________________________
dft_9 (DFT)                     (None, 128)          32768       tf_op_layer_split[0][9]
__________________________________________________________________________________________________
dft_13 (DFT)                    (None, 128)          32768       tf_op_layer_split[0][13]
__________________________________________________________________________________________________
dft_14 (DFT)                    (None, 128)          32768       tf_op_layer_split[0][14]
__________________________________________________________________________________________________
dft_15 (DFT)                    (None, 128)          32768       tf_op_layer_split[0][15]
__________________________________________________________________________________________________
dft_16 (DFT)                    (None, 128)          32768       tf_op_layer_split[0][16]
__________________________________________________________________________________________________
dft_17 (DFT)                    (None, 128)          32768       tf_op_layer_split[0][17]
__________________________________________________________________________________________________
dft_18 (DFT)                    (None, 128)          32768       tf_op_layer_split[0][18]
__________________________________________________________________________________________________
dft_19 (DFT)                    (None, 128)          32768       tf_op_layer_split[0][19]
__________________________________________________________________________________________________
dft_20 (DFT)                    (None, 128)          32768       tf_op_layer_split[0][20]
__________________________________________________________________________________________________
dft_21 (DFT)                    (None, 128)          32768       tf_op_layer_split[0][21]
__________________________________________________________________________________________________
dft_22 (DFT)                    (None, 128)          32768       tf_op_layer_split[0][22]
__________________________________________________________________________________________________
dft_23 (DFT)                    (None, 128)          32768       tf_op_layer_split[0][23]
__________________________________________________________________________________________________
dft_24 (DFT)                    (None, 128)          32768       tf_op_layer_split[0][24]
__________________________________________________________________________________________________
dft_25 (DFT)                    (None, 128)          32768       tf_op_layer_split[0][25]
__________________________________________________________________________________________________
dft_26 (DFT)                    (None, 128)          32768       tf_op_layer_split[0][26]
__________________________________________________________________________________________________
dft_27 (DFT)                    (None, 128)          32768       tf_op_layer_split[0][27]
__________________________________________________________________________________________________
dft_28 (DFT)                    (None, 128)          32768       tf_op_layer_split[0][28]
__________________________________________________________________________________________________
dft_29 (DFT)                    (None, 128)          32768       tf_op_layer_split[0][29]
__________________________________________________________________________________________________
dft_30 (DFT)                    (None, 128)          32768       tf_op_layer_split[0][30]
__________________________________________________________________________________________________
dft_31 (DFT)                    (None, 128)          32768       tf_op_layer_split[0][31]
__________________________________________________________________________________________________
dft_32 (DFT)                    (None, 128)          32768       tf_op_layer_split[0][32]
__________________________________________________________________________________________________
dft_33 (DFT)                    (None, 128)          32768       tf_op_layer_split[0][33]
__________________________________________________________________________________________________
dft_34 (DFT)                    (None, 128)          32768       tf_op_layer_split[0][34]
__________________________________________________________________________________________________
dft_35 (DFT)                    (None, 128)          32768       tf_op_layer_split[0][35]
__________________________________________________________________________________________________
dft_36 (DFT)                    (None, 128)          32768       tf_op_layer_split[0][36]
__________________________________________________________________________________________________
dft_37 (DFT)                    (None, 128)          32768       tf_op_layer_split[0][37]
__________________________________________________________________________________________________
dft_38 (DFT)                    (None, 128)          32768       tf_op_layer_split[0][38]
__________________________________________________________________________________________________
dft_39 (DFT)                    (None, 128)          32768       tf_op_layer_split[0][39]
__________________________________________________________________________________________________
dft_40 (DFT)                    (None, 128)          32768       tf_op_layer_split[0][40]
__________________________________________________________________________________________________
dft_41 (DFT)                    (None, 128)          32768       tf_op_layer_split[0][41]
__________________________________________________________________________________________________
dft_42 (DFT)                    (None, 128)          32768       tf_op_layer_split[0][42]
__________________________________________________________________________________________________
dft_43 (DFT)                    (None, 128)          32768       tf_op_layer_split[0][43]
__________________________________________________________________________________________________
dft_44 (DFT)                    (None, 128)          32768       tf_op_layer_split[0][44]
__________________________________________________________________________________________________
dft_45 (DFT)                    (None, 128)          32768       tf_op_layer_split[0][45]
__________________________________________________________________________________________________
dft_46 (DFT)                    (None, 128)          32768       tf_op_layer_split[0][46]
__________________________________________________________________________________________________
dft_47 (DFT)                    (None, 128)          32768       tf_op_layer_split[0][47]
__________________________________________________________________________________________________
dft_48 (DFT)                    (None, 128)          32768       tf_op_layer_split[0][48]
__________________________________________________________________________________________________
dft_49 (DFT)                    (None, 128)          32768       tf_op_layer_split[0][49]
__________________________________________________________________________________________________
dft_50 (DFT)                    (None, 128)          32768       tf_op_layer_split[0][50]
__________________________________________________________________________________________________
dft_51 (DFT)                    (None, 128)          32768       tf_op_layer_split[0][51]
__________________________________________________________________________________________________
dft_52 (DFT)                    (None, 128)          32768       tf_op_layer_split[0][52]
__________________________________________________________________________________________________
dft_53 (DFT)                    (None, 128)          32768       tf_op_layer_split[0][53]
__________________________________________________________________________________________________
dft_54 (DFT)                    (None, 128)          32768       tf_op_layer_split[0][54]
__________________________________________________________________________________________________
dft_55 (DFT)                    (None, 128)          32768       tf_op_layer_split[0][55]
__________________________________________________________________________________________________
dft_56 (DFT)                    (None, 128)          32768       tf_op_layer_split[0][56]
__________________________________________________________________________________________________
dft_57 (DFT)                    (None, 128)          32768       tf_op_layer_split[0][57]
__________________________________________________________________________________________________
dft_58 (DFT)                    (None, 128)          32768       tf_op_layer_split[0][58]
__________________________________________________________________________________________________
dft_59 (DFT)                    (None, 128)          32768       tf_op_layer_split[0][59]
__________________________________________________________________________________________________
dft_60 (DFT)                    (None, 128)          32768       tf_op_layer_split[0][60]
__________________________________________________________________________________________________
dft_61 (DFT)                    (None, 128)          32768       tf_op_layer_split[0][61]
__________________________________________________________________________________________________
dft_62 (DFT)                    (None, 128)          32768       tf_op_layer_split[0][62]
__________________________________________________________________________________________________
tf_op_layer_stack (TensorFlowOp [(63, None, 128)]    0           dft[0][0]
                                                                 dft_1[0][0]
                                                                 dft_2[0][0]
                                                                 dft_3[0][0]
…
                                                                 dft_61[0][0]
                                                                 dft_62[0][0]
__________________________________________________________________________________________________
tf_op_layer_Abs (TensorFlowOpLa [(63, None, 128)]    0           tf_op_layer_stack[0][0]
__________________________________________________________________________________________________
tf_op_layer_transpose (TensorFl [(None, 63, 128)]    0           tf_op_layer_Abs[0][0]
__________________________________________________________________________________________________
dropout (Dropout)               (None, 63, 128)      0           tf_op_layer_transpose[0][0]
__________________________________________________________________________________________________
separable_conv1d (SeparableConv (None, 60, 512)      66560       dropout[0][0]
__________________________________________________________________________________________________
max_pooling1d (MaxPooling1D)    (None, 15, 512)      0           separable_conv1d[0][0]
__________________________________________________________________________________________________
dropout_1 (Dropout)             (None, 15, 512)      0           max_pooling1d[0][0]
__________________________________________________________________________________________________
separable_conv1d_1 (SeparableCo (None, 12, 256)      133376      dropout_1[0][0]
__________________________________________________________________________________________________
max_pooling1d_1 (MaxPooling1D)  (None, 6, 256)       0           separable_conv1d_1[0][0]
__________________________________________________________________________________________________
dropout_2 (Dropout)             (None, 6, 256)       0           max_pooling1d_1[0][0]
__________________________________________________________________________________________________
separable_conv1d_2 (SeparableCo (None, 3, 256)       66816       dropout_2[0][0]
__________________________________________________________________________________________________
max_pooling1d_2 (MaxPooling1D)  (None, 1, 256)       0           separable_conv1d_2[0][0]
__________________________________________________________________________________________________
dropout_3 (Dropout)             (None, 1, 256)       0           max_pooling1d_2[0][0]
__________________________________________________________________________________________________
flatten (Flatten)               (None, 256)          0           dropout_3[0][0]
__________________________________________________________________________________________________
dense (Dense)                   (None, 128)          32896       flatten[0][0]
__________________________________________________________________________________________________
dropout_4 (Dropout)             (None, 128)          0           dense[0][0]
__________________________________________________________________________________________________
dense_1 (Dense)                 (None, 64)           8256        dropout_4[0][0]
__________________________________________________________________________________________________
dropout_5 (Dropout)             (None, 64)           0           dense_1[0][0]
__________________________________________________________________________________________________
dense_2 (Dense)                 (None, 10)           650         dropout_5[0][0]
==================================================================================================
Total params: 2,274,634
Trainable params: 2,274,634
Non-trainable params: 0
__________________________________________________________________________________________________
Train on 17049 samples, validate on 4263 samples
Epoch 1/100
17049/17049 [==============================] - 60s 3ms/sample - loss: 2.1403 - accuracy: 0.1658 - val_loss: 1.9077 - val_accuracy: 0.2372
…
