…
To enable them in non-MKL-DNN operations, rebuild TensorFlow with the appropriate compiler flags.
2020-10-31 00:02:14.334638: I tensorflow/core/common_runtime/process_util.cc:115] Creating new thread pool with default inter op setting: 12. Tune using inter_op_parallelism_threads for best performance.
Model: "model"
_________________________________________________________________
Layer (type)                 Output Shape              Param #
=================================================================
input_1 (InputLayer)         [(None, 8000, 1)]         0
_________________________________________________________________
conv1d (Conv1D)              (None, 7988, 8)           112
_________________________________________________________________
max_pooling1d (MaxPooling1D) (None, 2662, 8)           0
_________________________________________________________________
dropout (Dropout)            (None, 2662, 8)           0
_________________________________________________________________
conv1d_1 (Conv1D)            (None, 2652, 16)          1424
_________________________________________________________________
max_pooling1d_1 (MaxPooling1 (None, 884, 16)           0
_________________________________________________________________
dropout_1 (Dropout)          (None, 884, 16)           0
_________________________________________________________________
conv1d_2 (Conv1D)            (None, 876, 32)           4640
_________________________________________________________________
max_pooling1d_2 (MaxPooling1 (None, 292, 32)           0
_________________________________________________________________
dropout_2 (Dropout)          (None, 292, 32)           0
_________________________________________________________________
conv1d_3 (Conv1D)            (None, 286, 64)           14400
_________________________________________________________________
max_pooling1d_3 (MaxPooling1 (None, 95, 64)            0
_________________________________________________________________
dropout_3 (Dropout)          (None, 95, 64)            0
_________________________________________________________________
flatten (Flatten)            (None, 6080)              0
_________________________________________________________________
dense (Dense)                (None, 256)               1556736
_________________________________________________________________
dropout_4 (Dropout)          (None, 256)               0
_________________________________________________________________
dense_1 (Dense)              (None, 128)               32896
_________________________________________________________________
dropout_5 (Dropout)          (None, 128)               0
_________________________________________________________________
dense_2 (Dense)              (None, 10)                1290
=================================================================
Total params: 1,611,498
Trainable params: 1,611,498
Non-trainable params: 0
_________________________________________________________________
Train on 17049 samples, validate on 4263 samples
Epoch 1/100
17049/17049 [==============================] - 139s 8ms/sample - loss: 2.0530 - accuracy: 0.2225 - val_loss: 1.6949 - val_accuracy: 0.3753
…
